voice_classifier.pth (torch, 22849 bytes, 6 tensors)

conv1.weight f4 [16, 1, 3, 3]
000000 43 98 7f bc 25 90 9f be 5c 15 80 3e 5d f5 b7 bd
       -0.015600267 -0.3116466 0.25016296 -0.08982346
000010 30 19 09 3e 0f 74 8f be 4f 5a 60 be 06 4b 8b 3c
       0.13388515 -0.28018233 -0.2190945 0.017003547
000020 c6 ab 4f 3e 48 0a 3e bd ad 8d 8b 3e a6 43 49 be
       0.2028037 -0.046396524 0.27256528 -0.19654712
000030 22 d9 44 3d 90 3c 18 3e 0f 9d 5d 3e 86 d2 b8 3d
       0.048058636 0.14866853 0.21641944 0.09024529
000040 f9 ec 32 3e d1 c9 54 3d 7f e6 b1 bd 25 82 2e bd
       0.1747321 0.05195028 -0.08686542 -0.042604584
000050 70 d2 5a 3d 3a 16 b5 bd bf 7c 9e 3e a8 82 52 3e
       0.053423345 -0.0884213 0.3095455 0.20557654
000060 99 07 04 be 99 54 f4 bd ef 23 11 be 16 fc 2f be
       -0.12893523 -0.11930198 -0.14173864 -0.17186007
000070 cf aa 3c 3e 93 00 f5 bd cc 6e 62 3e bf 2c 94 be
       0.18424533 -0.11963 0.22112578 -0.2894039
000080 78 41 4e be 92 80 1d 3d e1 2c 4d 3e 01 64 89 3e
       -0.20142162 0.038452692 0.20036651 0.2683411
000090 c4 bf 7a 3d 91 fb e5 bd 8a b6 8c 3e 7d 0d 92 3e
       0.06121804 -0.11229623 0.27483016 0.28525916
0000a0 8f 4d e5 3d fb ef 4f 3e 06 ec 16 be c6 6e b9 3d
       0.11196434 0.20306389 -0.14738473 0.090543315
0000b0 25 d0 f7 bd ec 05 63 be 2c f8 09 bc 47 c7 c1 3d
       -0.12100247 -0.22170228 -0.008420985 0.09461837
0000c0 35 a8 63 bd e8 d4 03 be 5a a3 5e 3e d5 72 3b bc
       -0.055580337 -0.12874186 0.21742001 -0.011440952
0000d0 55 b9 30 3d 37 d2 dc bc bd f5 40 be ae 2c ca bd
       0.043145496 -0.026955707 -0.18843742 -0.09871803
0000e0 2b 7c c9 3d 65 5e 03 3e 3e 37 24 3d 23 2f 3e 3e
       0.09838136 0.12828977 0.040091746 0.18572669
0000f0 63 81 76 bc 5f fd 16 bd 5e e1 76 be d1 77 c3 3d
       -0.015045497 -0.036862727 -0.24109408 0.095443375
000100 a5 10 a9 3d 43 9c e3 bd 5d 16 2f 3e c8 9c ab 3e
       0.08255128 -0.11113789 0.17098375 0.33518052
000110 ec e5 5c bd a2 ff aa 3e f0 f8 d5 3d 07 92 06 be
       -0.053930208 0.33398157 0.10447872 -0.13141643
000120 e8 de 41 3e b4 76 2b be 3c 3a 0a be 31 ac 80 3e
       0.18932688 -0.167445 -0.13498777 0.25131372
000130 18 80 44 be ad 02 89 be d3 bc 83 be fd 19 27 be
       -0.19189489 -0.26759854 -0.2573 -0.16318507
000140 7a 73 e2 3b 9e da 89 bc f0 c4 ae bc fc 3c a5 be
       0.0069107385 -0.016827878 -0.021334141 -0.3227309
000150 ec a3 9f 3d e7 de 30 be a7 04 fd bc 58 47 cb bd
       0.077949375 -0.1727253 -0.030886007 -0.09925717
000160 fe e9 92 be 53 1f 41 be fd c5 9d 3e da 97 10 bd
       -0.28694147 -0.18859605 0.30815116 -0.035301067
000170 63 39 63 bd 5a 36 d3 bc 97 fa 6d 3e 23 c8 48 be
       -0.05547465 -0.025782753 0.23240124 -0.19607596
000180 30 c4 92 be ee a6 f8 3d 1f a6 71 3e 1c 3d 9a be
       -0.28665304 0.12141214 0.23598526 -0.30124748
000190 48 69 91 bc f4 98 a0 be c6 5c 01 be 22 9f 08 3e
       -0.017750397 -0.31366694 -0.12633047 0.13341954
0001a0 5c cf f5 3d f1 53 d0 bd 41 5c 18 3e 5d 96 cb 3d
       0.12002441 -0.101722606 0.14878942 0.09940789
0001b0 cd 67 f4 bb c8 7b 42 3e c5 f9 e8 3d f1 b5 4d be
       -0.007458663 0.18992531 0.11375765 -0.20088936
0001c0 41 64 29 be cd bf 1c 3e dc 8f 8f 3c c5 99 01 3e
       -0.1654215 0.15307541 0.017524652 0.12656315
0001d0 c4 01 82 3e a4 4e 43 bd 9a 62 1f 3e b8 c7 7f be
       0.25391972 -0.04768242 0.15564957 -0.2497853
0001e0 22 ad a3 3e b9 53 8d 3e b6 58 2d 3e 73 2e 9a be
       0.31968027 0.27602938 0.16928372 -0.30113563
0001f0 b4 d3 9a be 2b 37 94 3e a9 03 3c 3e 2b 66 24 3e
       -0.30239642 0.2894834 0.18360771 0.16054599
000200 a0 47 81 be 09 80 a9 be 19 ed 98 bd f8 f8 a3 be
       -0.25249958 -0.33105496 -0.07467098 -0.32025886
000210 48 df bb bd fd df 30 3e b6 83 45 3d d7 7b 56 be
       -0.09173447 0.17272945 0.048221312 -0.20945679
000220 ca 68 5b 3d 83 2f a9 bd 5f 56 49 be 8d cf 77 3a
       0.05356673 -0.08261015 -0.19661854 0.000945323
000230 1b e1 9b be 85 94 af bc e1 e1 5f be c5 4b 50 be
       -0.3044518 -0.021433124 -0.2186351 -0.20341404

conv1.bias f4 [16]
000000 9a f7 bb 3d 34 b7 a2 be 59 a7 1b 3d c8 49 e0 bd
       0.091780856 -0.31780398 0.038001392 -0.10951573
000010 3b 1a 98 3e cf 4c a7 3e 6a e0 87 3d fc eb 26 bc
       0.29707512 0.32675788 0.066346005 -0.010188099
000020 46 05 8c 3e 82 63 2f bd 1b 5b 71 3d 5d 76 91 3d
       0.27347773 -0.042819507 0.058924776 0.07102654
000030 e6 3b 9f 3e d1 42 44 3e 84 9c 5c be 5a 4d a6 be
       0.31100386 0.19166113 -0.21544081 -0.3248089

conv2.weight f4 [32, 16, 3, 3]
000000 b3 35 68 3c eb 7e 5e bd cb 92 c3 3b 42 ca 53 bd
       0.014172959 -0.054320257 0.005968427 -0.05170656
000010 36 79 92 bd 0f 55 c2 3c 68 39 0a bb 61 27 66 3d
       -0.071520254 0.0237222 -0.0021091346 0.0561899
000020 fb 6a 74 bd 7f 52 a9 bd d4 7a 2b bd 3a 4c 05 3d
       -0.059672337 -0.08267688 -0.041865185 0.0325434
000030 a7 a5 a5 bd 9b de bf 3c 59 09 82 3d 81 b3 98 3d
       -0.08088236 0.023421576 0.06349439 0.07456113
000040 b4 43 89 bc 4a cf fe 3c f5 5b 46 bd 5d 4d 12 bc
       -0.016755916 0.031104703 -0.04842754 -0.008929578
000050 8d 68 6a bd f9 d2 a1 3d eb 7b 90 bb 57 86 35 3d
       -0.057228614 0.07901568 -0.0044093034 0.04431757
000060 02 bf 99 bc 8e 13 3e 3d 4c 94 80 3d d7 2d cc bc
       -0.018767837 0.046405368 0.062782854 -0.024924202
000070 db 3c 39 3d 6f 54 f6 bc d9 d7 b8 3c 56 2d 75 3d
       0.045224052 -0.030069558 0.022563862 0.05985769
000080 56 50 03 3d 9a a0 d1 3c c4 34 ad bd ed b2 08 3c
       0.032059036 0.025589276 -0.0845733 0.0083434405
000090 88 37 69 3d de 87 44 bd d0 88 85 3c b4 e3 95 3c
       0.056937724 -0.047981136 0.016300589 0.018297054
0000a0 4d 06 90 bd d8 22 fa 3c f5 5c 3c 3b cf 92 03 3d
       -0.07032452 0.030534193 0.002874193 0.03212243
0000b0 89 bf 86 ba ee 51 67 bc 72 7a cf 3c 09 dd 1c bd
       -0.0010280471 -0.014118655 0.025326941 -0.038296733
0000c0 44 6e 04 bd 42 63 55 bd 89 56 30 bd a3 18 3a 3d
       -0.03233172 -0.052096613 -0.043051276 0.04543365
0000d0 ee a2 46 bd ac 8a 88 3d d3 1b be bc c4 f3 2d 3c
       -0.048495226 0.066670746 -0.023206627 0.0106172
0000e0 e3 0c 90 3d 35 51 06 3d 24 cf a4 bd cb 26 2c bd
       0.07033708 0.03279229 -0.080473214 -0.042029183
0000f0 10 b9 60 bd 1d 82 50 3b 5d 8a 7e 3d c5 86 23 3d
       -0.05486399 0.0031815835 0.062143672 0.039923448
000100 73 ba 5a 3d 81 93 6b 3d da 09 4a 3c ac 17 a3 3d
       0.053400468 0.057513718 0.01233145 0.079634994
000110 4a 7d 01 bd 37 3f bf b9 3c 0a 20 bd 87 43 ec 3b
       -0.031613626 -0.00036477458 -0.03907226 0.0072101983
000120 20 76 94 bc 71 05 9d bc b6 27 10 bd ce 88 21 bd
       -0.018122733 -0.019167634 -0.03519412 -0.039437108
000130 18 1d 4f 3d 1e 84 aa bd 28 84 80 bd 4e 74 47 bc
       0.050564855 -0.083259806 -0.06275207 -0.012173725
000140 9c 23 d4 3c 9a 6d 2c 3d c5 38 89 bd 17 ef 7f 3c
       0.025895886 0.04209671 -0.06700281 0.015620968
000150 43 17 f6 3c f1 36 96 3d 86 b0 54 3c fb 9b 4b 3d
       0.030040389 0.07334698 0.01298154 0.0497093
000160 eb 9c fc 3c ff 74 72 3a 04 76 83 bd 16 c2 23 3d
       0.030836543 0.0009249001 -0.06418994 0.039980017
000170 73 9b 63 3d 25 21 6c bc 12 51 a0 bc 68 70 8b bd
       0.05556817 -0.014412199 -0.019569907 -0.06808549
000180 a6 2b 2f 3d 9e 85 80 3d d5 35 9c bd 8c 79 1f 3d
       0.042766236 0.062754855 -0.07627455 0.038934276
000190 15 d7 87 3d 48 49 3e 3c d9 56 fa 3c 30 63 a4 bd
       0.066328205 0.011614151 0.03055899 -0.08026731
0001a0 d6 75 35 3c ab ae 90 bd ad b6 37 bc 21 6e 9d bc
       0.011075458 -0.07064565 -0.011212987 -0.019217553
0001b0 04 99 85 3b 84 72 27 3d b4 ae 8a 3d e6 a6 a4 3d
       0.004077079 0.040880695 0.06771603 0.08039646
0001c0 2f 3a 80 bd d5 81 8f 3c bd b6 5e 3d 00 b0 b4 bb
       -0.06261098 0.017517963 0.05437349 -0.005514145
0001d0 05 48 b3 bc 96 62 cd 3c 3d 82 86 3d b1 13 12 3d
       -0.021884928 0.025071424 0.0656781 0.03566331
0001e0 83 b7 09 3c ab 7f 85 bd 0d 71 21 bc 7a 39 7e 3d
       0.008405569 -0.06518491 -0.009853614 0.062066533
0001f0 80 9e 83 bc 7c 60 95 3d 76 4b 48 bd 01 3b 5b bd
       -0.01606679 0.072937936 -0.04890009 -0.053523067
000200 cb e4 59 bd 9c 07 89 3d 1a 61 24 3d 98 f1 ce bc
       -0.05319671 0.066909045 0.040131666 -0.025261685
000210 9a c6 25 bd f3 19 06 bd dc 7e aa bd 1b 06 7a 3d
       -0.040472604 -0.03273959 -0.08324978 0.06104098
000220 ea 87 80 bd 9f a8 e3 3b 06 0a 2e 3d 72 c7 07 bd
       -0.062759236 0.0069475914 0.042490028 -0.03314919
000230 05 bb a5 bd a4 76 e7 3c 50 79 cc bc d1 86 ae bc
       -0.08092312 0.028254814 -0.02496019 -0.02130452
000240 29 e7 1c 3d 96 8a 5d 3d 52 ec 57 bc c6 92 39 bd
       0.03830639 0.054087244 -0.013178902 -0.04530599
000250 52 b9 2c bd b6 af ac bd e0 9d 74 3c 21 06 de 3c
       -0.042168923 -0.08431952 0.014930218 0.027102532
000260 ab 39 6d 3d 24 76 00 bd 8d 2c 8c 3b f6 1b bc b9
       0.057916325 -0.031362668 0.004277772 -0.00035878987
000270 fd 16 98 b9 57 c4 aa bd b8 2c 11 3d a4 bf 13 3d
       -0.00029008827 -0.0833823 0.035443038 0.036071435
000280 78 69 d7 bc ed d7 a5 3c 74 4a e8 bc 62 23 c9 bc
       -0.026295409 0.020244563 -0.028355815 -0.024553005
000290 2a 45 80 3d ce 82 4d 3c 97 d4 8d bd ca 60 43 3d
       0.06263192 0.012543393 -0.06925314 0.047699727
0002a0 0a ec 64 3d e2 c3 25 bd 4c a0 87 3b 92 c8 1f 3d
       0.055889167 -0.04047001 0.004138982 0.039009638
0002b0 f0 bb 9b bd be 28 a9 3c 91 50 57 3d 8a 64 5d 3d
       -0.076042056 0.02064931 0.05256707 0.05405096
0002c0 e7 5a a7 bd bd 2f a9 bd 5c e7 84 bd b5 7f 85 3c
       -0.08171635 -0.082610585 -0.06489441 0.016296247
0002d0 d3 bc d5 bc 71 fa aa bd cf ed 03 3c f9 23 53 3c
       -0.026091015 -0.08348549 0.008052303 0.0128869945
0002e0 3a f4 57 bd 01 21 83 bd f0 b7 cb bb b8 06 26 bd
       -0.052723147 -0.06402779 -0.0062169954 -0.04053375
0002f0 c8 60 d0 3c 6f e7 8c bd ac ce 5d bd b9 02 d1 3c
       0.025436774 -0.0688008 -0.054152176 0.025513994
000300 46 15 9e bd 88 ba 7d 3d b2 e6 8d bd ed 31 27 3d
       -0.07718901 0.06194547 -0.06928767 0.040819097
000310 6d f6 74 bd 08 f8 70 bb 35 f0 ca bc 17 c3 4f 3d
       -0.059805322 -0.0036768932 -0.024772743 0.05072316
000320 ad 29 02 3d c1 9b 95 3d 9d cc c1 bb 49 2f 96 bd
       0.031778026 0.07305098 -0.0059142844 -0.07333238
000330 e5 75 18 bd 27 bd 8c 3d 7c 2e 49 bc 72 ce 73 bd
       -0.037221808 0.068720154 -0.012279149 -0.059523053
000340 da 0a bd bd 7c 04 5d 3c f7 9b a9 3d 0c a4 5d bd
       -0.092305854 0.013489839 0.08281701 -0.054111525
000350 f0 65 76 3d 06 aa f5 3c ac 2a 8e 3d 42 34 11 bd
       0.06015581 0.0299883 0.06941733 -0.035450228
000360 7e 1c 40 3c 94 50 16 3d 10 09 b5 3b 66 03 ce bc
       0.011725543 0.03669794 0.005524762 -0.025148105
000370 97 af 0e 3d 77 51 60 3d 3a 58 5d 3d 27 99 c8 bc
       0.034835424 0.05476519 0.054039218 -0.024487091
000380 89 be a8 3c f2 99 3b bd 8c 6f 31 3d 4f b2 91 3c
       0.020598667 -0.04580111 0.04331927 0.01778522
000390 b3 18 b8 bc b5 8d 2a 3d 77 2a 24 3d c0 ba f4 b6
       -0.022472715 0.04163905 0.04007956 -7.293507e-06
0003a0 09 b3 07 3d 2c 80 9f bd 52 48 e1 3c 0d 0a c9 3c
       0.033129726 -0.07788119 0.027500305 0.024540925
0003b0 8b cc 91 3c b8 e1 39 3d 39 0b ee 3a 66 4b 9c 3d
       0.017797729 0.045381278 0.0018161304 0.076315686
0003c0 78 24 6e 3c b7 36 89 bd 1c 79 aa bd 2a b6 18 bd
       0.014535062 -0.06699889 -0.08323881 -0.0372831
0003d0 d8 fe af 3d 17 2c 43 bc db 85 a5 bd 04 06 14 bc
       0.085935295 -0.011912367 -0.080821715 -0.009034637
0003e0 bd 31 83 bd 69 a1 cb bb dc 52 4a 3d 13 9f db 3c
       -0.06405971 -0.00621431 0.049395427 0.026809251
0003f0 1c a0 3d bd 1f d4 b0 bd bd 86 29 3d 3f 1f d4 3c
       -0.04629527 -0.08634209 0.041388262 0.025893806

conv2.bias f4 [32]
000000 5e 51 9f 3d fb 24 55 bc 6e 51 79 bc 0b 37 76 3d
       0.077791914 -0.013009305 -0.015217168 0.060111087
000010 44 5c 57 3d 78 3d c4 bd 45 cc 4d bd c6 7b 38 3d
       0.052578226 -0.09582037 -0.050243635 0.045039915
000020 45 fc 90 bd 3c 7e 4f 3d 98 3b ec bb 7f e8 86 3d
       -0.070793666 0.050657496 -0.0072092526 0.06587314
000030 79 29 a8 3d 93 de ae bc 7f 75 19 bd a0 53 53 3d
       0.08211035 -0.021346366 -0.03746557 0.051593423
000040 9b f5 12 3d 60 69 b0 39 20 16 9a 3d 8c 69 23 3d
       0.03587876 0.00033647846 0.07523751 0.03989558
000050 26 c5 5b 3c a9 90 77 3d 3f ad 82 bd ae fd 1c bd
       0.013413703 0.060440693 -0.063807 -0.038327865
000060 f0 73 7b ba b8 da 82 bd b5 1f 87 3d e9 a9 79 3d
       -0.0009592166 -0.063893735 0.065978445 0.060953055
000070 7b 6f c0 3c 2d 27 ff 3b 19 ea 32 3d f5 f2 a4 bd
       0.023490658 0.0077866525 0.043680284 -0.08054153

fc2.weight f4 [2, 64]
000000 4d 9a 1c 3d 97 1b 02 3e ff ad 60 bd 76 9e c5 3d
       0.03823309 0.12705837 -0.054853436 0.09649365
000010 69 4b c7 bd f9 7e a4 3b 1d 02 b7 bd fd 64 c5 bd
       -0.0973118 0.005020019 -0.0893595 -0.096384026
000020 24 ef 78 3d b0 d5 97 3d 1c aa 9b bd 30 8d 9a 3c
       0.060774937 0.074138045 -0.07600805 0.018866152
000030 97 67 f7 3b e0 35 36 bd 7c ba 6f bd 49 47 f7 3d
       0.0075501907 -0.044484973 -0.058527455 0.120741434
000040 a0 5d 8b bd b0 e4 94 3c f9 7d b2 bd c5 02 96 3d
       -0.06804967 0.018175453 -0.087154336 0.07324747
000050 3c 65 99 bd f1 62 63 bd 1d 31 75 bd 03 15 92 bc
       -0.07490012 -0.05551428 -0.05986129 -0.017832285
000060 da b0 28 3c c4 73 ec bd c0 ca d8 3c 1a f6 24 3d
       0.010296071 -0.11545518 0.026463866 0.040273763
000070 c6 57 c1 3d 84 a3 60 bd 09 df ab bd ce e1 d4 bd
       0.094405696 -0.05484344 -0.0839215 -0.10394631
000080 3a 89 bf 3b b9 3f bd bd 38 01 3a bd 85 84 b2 3d
       0.005845216 -0.0924067 -0.04541132 0.08716682
000090 93 db db 3c f6 5e b0 bd ab a6 6e bc d6 5c 1f 3d
       0.0268381 -0.08611862 -0.014566104 0.038906895
0000a0 eb 22 52 bd b4 bf 32 bd 47 2e 88 bd 2c b3 f9 3d
       -0.05130283 -0.043639854 -0.06649452 0.121923774
0000b0 57 5c 00 3e 60 a7 8c ba 40 ae 9d bc 72 26 83 3d
       0.12535225 -0.0010731034 -0.019248128 0.06403817
0000c0 d6 d6 9b bd 58 0c c9 3d 43 f0 ce bd 84 db 4e bd
       -0.07609336 0.098168075 -0.1010442 -0.050502315
0000d0 4b 90 2a bd 89 c5 69 3d b8 5c ea bd da a7 6d bc
       -0.041641515 0.05707315 -0.11443466 -0.014505351
0000e0 fe 6e 96 bd 70 79 19 bc dd 64 c7 3d f0 65 4c 3c
       -0.07345389 -0.009367332 0.09736035 0.012475476
0000f0 9c cb b0 3d dc ce 29 ba c4 00 fc 3b 44 cf c1 bd
       0.086325854 -0.0006477663 0.007690521 -0.09463361
000100 9f 70 a2 3d 17 34 20 bd e2 fa 76 bc bb 50 05 be
       0.07931637 -0.039112177 -0.015074464 -0.13019077
000110 67 a8 f1 3d 9c 38 bf 3d 53 75 dc 3c ac 44 9e bd
       0.11799698 0.09336969 0.026911413 -0.07727942
000120 9a d3 8c 3d e4 8d b2 3c a4 df a1 bd fc f2 ac 3d
       0.06876297 0.021796174 -0.07903984 0.08444783
000130 3b 84 7a 3d fd f1 d0 3d e5 78 95 3d 69 e4 d9 bd
       0.06116126 0.102024056 0.072984494 -0.10639269
000140 21 60 47 bd d7 65 d0 bd eb ef 93 3c d7 92 5a bd
       -0.04867566 -0.101756744 0.018058738 -0.053362694
000150 6c ec 51 bd 14 a9 c2 bd 8f 43 9c bd d3 e5 4b bd
       -0.05125086 -0.09504905 -0.07630073 -0.049779724
000160 9d 81 63 3d 2c 17 d6 bd 88 42 4d 3d 67 37 03 be
       0.05554353 -0.104536384 0.050112277 -0.12814103
000170 a8 ee e3 bd 5c 99 fc bd 75 2d 75 3c 3a 4a 48 bc
       -0.111295044 -0.123339385 0.014964451 -0.012224728
000180 6c b0 69 bc 8c 9b 9e bc 3c 4a 6d 3d dc 30 02 bb
       -0.014263254 -0.01936128 0.057932124 -0.0019865548
000190 cd c2 76 bd 92 38 8a bd 49 eb df 3d fb ee 2f 3b
       -0.06024437 -0.06749071 0.10933549 0.0026845324
0001a0 5a 0c d7 bc 84 bf 13 3d 9a e8 32 3d d4 74 da 3d
       -0.026251007 0.036071315 0.043678857 0.106668144
0001b0 54 f5 95 3d ef 3c a4 bd b4 4b 3b 3d 04 f6 71 bd
       0.07322183 -0.08019435 0.045726493 -0.05907251
0001c0 c0 56 59 bd 3e 48 8e bc 78 d7 61 bd b0 ba 1e bd
       -0.053061247 -0.017368432 -0.055137128 -0.038752258
0001d0 c3 95 eb bd 89 43 2c 3c fe 33 15 bb 4e 11 97 3c
       -0.11503174 0.0105141485 -0.0022766585 0.018440869
0001e0 5d 13 35 3d 8c 29 a6 3d b7 dd d7 bd 30 7c 5c 3d
       0.04420792 0.08113393 -0.105403356 0.053829372
0001f0 bc 75 24 bd 40 5a f6 bc 61 06 95 bd f6 c8 e1 bd
       -0.040151343 -0.030072331 -0.07276607 -0.110246584

fc2.bias f4 [2]
000000 cf 6f 85 bb 35 a3 d4 3c
       -0.0040721665 0.02595673
